
Basic Specs
----------------------------------------------------
Input Size: torch.Size([32, 1, 512, 512])


Model Specs: 
three_layer_conv_network(
  (conv_1): Sequential(
    (0): Conv2d(1, 256, kernel_size=(5, 5), stride=(2, 2), padding=(1, 1))
    (1): BatchNorm2d(256, eps=1e-05, momentum=0.1, affine=True, track_running_stats=True)
    (2): ReLU()
    (3): Dropout2d(p=0.2, inplace=False)
    (4): MaxPool2d(kernel_size=(2, 2), stride=(2, 2), padding=0, dilation=1, ceil_mode=False)
  )
  (conv_2): Sequential(
    (0): Conv2d(256, 512, kernel_size=(3, 3), stride=(2, 2), padding=(1, 1))
    (1): BatchNorm2d(512, eps=1e-05, momentum=0.1, affine=True, track_running_stats=True)
    (2): ReLU()
    (3): Dropout2d(p=0.2, inplace=False)
    (4): Conv2d(512, 512, kernel_size=(3, 3), stride=(2, 2), padding=(1, 1))
    (5): BatchNorm2d(512, eps=1e-05, momentum=0.1, affine=True, track_running_stats=True)
    (6): ReLU()
    (7): Dropout2d(p=0.2, inplace=False)
    (8): MaxPool2d(kernel_size=(2, 2), stride=(2, 2), padding=0, dilation=1, ceil_mode=False)
  )
  (conv_3): Sequential(
    (0): Conv2d(512, 1024, kernel_size=(3, 3), stride=(1, 1), padding=(1, 1))
    (1): BatchNorm2d(1024, eps=1e-05, momentum=0.1, affine=True, track_running_stats=True)
    (2): ReLU()
    (3): Dropout2d(p=0.2, inplace=False)
    (4): Conv2d(1024, 1024, kernel_size=(3, 3), stride=(1, 1), padding=(1, 1))
    (5): BatchNorm2d(1024, eps=1e-05, momentum=0.1, affine=True, track_running_stats=True)
    (6): ReLU()
    (7): Dropout2d(p=0.2, inplace=False)
    (8): MaxPool2d(kernel_size=(2, 2), stride=(2, 2), padding=0, dilation=1, ceil_mode=False)
  )
  (flatten): Flatten(start_dim=1, end_dim=-1)
  (dense): Sequential(
    (0): Linear(in_features=65536, out_features=2048, bias=True)
    (1): ReLU()
    (2): Dropout(p=0.4, inplace=False)
    (3): Linear(in_features=2048, out_features=1, bias=True)
  )
)





Training Information
--------------------------------------------------------------------------------
Training Begin
----------------------------------------------------
There are 3 epochs, and for each epoch, there are 138 batches of training data
Total Training Steps: 414
Total Displaying Information: 14
Optimizer name - AdamW learning rate: 2e-06
…
